…
ion='relu'))\n","model.add(Dense(4096, activation='relu'))\n","model.add(Dense(1000, activation='softmax'))\n","\n","model.compile(loss='categorical_crossentropy',\n","              optimizer='sgd',\n","              metrics=['accuracy'])\n","\n","model.summary()\n"],"execution_count":17,"outputs":[{"output_type":"stream","text":["Model: \"sequential_4\"\n","_________________________________________________________________\n","Layer (type)                 Output Shape              Param #   \n","=================================================================\n","conv2d_50 (Conv2D)           (None, 224, 224, 64)      1792      \n","_________________________________________________________________\n","conv2d_51 (Conv2D)           (None, 224, 224, 64)      36928     \n","_________________________________________________________________\n","max_pooling2d_16 (MaxPooling (None, 112, 112, 64)      0         \n","_________________________________________________________________\n","conv2d_52 (Conv2D)           (None, 112, 112, 128)     73856     \n","_________________________________________________________________\n","conv2d_53 (Conv2D)           (None, 112, 112, 128)     147584    \n","_________________________________________________________________\n","max_pooling2d_17 (MaxPooling (None, 56, 56, 128)       0         \n","_________________________________________________________________\n","conv2d_54 (Conv2D)           (None, 56, 56, 256)       295168    \n","_________________________________________________________________\n","conv2d_55 (Conv2D)           (None, 56, 56, 256)       590080    \n","_________________________________________________________________\n","conv2d_56 (Conv2D)           (None, 56, 56, 256)       590080    \n","_________________________________________________________________\n","conv2d_57 (Conv2D)           (None, 56, 56, 256)       590080    \n","_________________________________________________________________\n","max_pooling2d_18 (MaxPooling (None, 28, 28, 256)       0         \n","_________________________________________________________________\n","conv2d_58 (Conv2D)           (None, 28, 28, 521)       1200905   \n","_________________________________________________________________\n","conv2d_59 (Conv2D)           (None, 28, 28, 521)       2443490   \n","_________________________________________________________________\n","conv2d_60 (Conv2D)           (None, 28, 28, 521)       2443490   \n","_________________________________________________________________\n","conv2d_61 (Conv2D)           (None, 28, 28, 521)       2443490   \n","_________________________________________________________________\n","max_pooling2d_19 (MaxPooling (None, 14, 14, 521)       0         \n","_________________________________________________________________\n","conv2d_62 (Conv2D)           (None, 14, 14, 521)       2443490   \n","_________________________________________________________________\n","conv2d_63 (Conv2D)           (None, 14, 14, 521)       2443490   \n","_________________________________________________________________\n","conv2d_64 (Conv2D)           (None, 14, 14, 521)       2443490   \n","_________________________________________________________________\n","conv2d_65 (Conv2D)           (None, 14, 14, 521)       2443490   \n","_________________________________________________________________\n","max_pooling2d_20 (MaxPooling (None, 7, 7, 521)         0         \n","_________________________________________________________________\n","flatten_4 (Flatten)          (None, 25529)             0         \n","_________________________________________________________________\n","dense_11 (Dense)             (None, 4096)              104570880 \n","_________________________________________________________________\n","dense_12 (Dense)             (None, 4096)              16781312  \n","_________________________________________________________________\n","dense_13 (Dense)             (None, 1000)              4097000   \n","=================================================================\n","Total params: 146,080,095\n","Trainable params: 146,080,095\n","Non-trainable params: 0\n","_________________________________________________________________\n"],"name":"stdout"}]},{"cell_type":"markdown","metadata":{"id":"G7iqHL09XO_c"},"source":["##Using VGG16 model"]},{"cell_type":"code","metadata":{"colab":{"base_uri
…
t the classification\n","print('%s (%.2f%%)' % (label[1], label[2]*100))\n","model.summary()\n"],"execution_count":11,"outputs":[{"output_type":"stream","text":["Chesapeake_Bay_retriever (90.68%)\n","Model: \"vgg16\"\n","_________________________________________________________________\n","Layer (type)                 Output Shape              Param #   \n","=================================================================\n","input_4 (InputLayer)         [(None, 224, 224, 3)]     0         \n","_________________________________________________________________\n","block1_conv1 (Conv2D)        (None, 224, 224, 64)      1792      \n","_________________________________________________________________\n","block1_conv2 (Conv2D)        (None, 224, 224, 64)      36928     \n","_________________________________________________________________\n","block1_pool (MaxPooling2D)   (None, 112, 112, 64)      0         \n","_________________________________________________________________\n","block2_conv1 (Conv2D)        (None, 112, 112, 128)     73856     \n","_________________________________________________________________\n","block2_conv2 (Conv2D)        (None, 112, 112, 128)     147584    \n","_________________________________________________________________\n","block2_pool (MaxPooling2D)   (None, 56, 56, 128)       0         \n","_________________________________________________________________\n","block3_conv1 (Conv2D)        (None, 56, 56, 256)       295168    \n","_________________________________________________________________\n","block3_conv2 (Conv2D)        (None, 56, 56, 256)       590080    \n","_________________________________________________________________\n","block3_conv3 (Conv2D)        (None, 56, 56, 256)       590080    \n","_________________________________________________________________\n","block3_pool (MaxPooling2D)   (None, 28, 28, 256)       0         \n","_________________________________________________________________\n","block4_conv1 (Conv2D)        (None, 28, 28, 512)       1180160   \n","_________________________________________________________________\n","block4_conv2 (Conv2D)        (None, 28, 28, 512)       2359808   \n","_________________________________________________________________\n","block4_conv3 (Conv2D)        (None, 28, 28, 512)       2359808   \n","_________________________________________________________________\n","block4_pool (MaxPooling2D)   (None, 14, 14, 512)       0         \n","_________________________________________________________________\n","block5_conv1 (Conv2D)        (None, 14, 14, 512)       2359808   \n","_________________________________________________________________\n","block5_conv2 (Conv2D)        (None, 14, 14, 512)       2359808   \n","_________________________________________________________________\n","block5_conv3 (Conv2D)        (None, 14, 14, 512)       2359808   \n","_________________________________________________________________\n","block5_pool (MaxPooling2D)   (None, 7, 7, 512)         0         \n","_________________________________________________________________\n","flatten (Flatten)            (None, 25088)             0         \n","_________________________________________________________________\n","fc1 (Dense)                  (None, 4096)              102764544 \n","_________________________________________________________________\n","fc2 (Dense)                  (None, 4096)              16781312  \n","_________________________________________________________________\n","predictions (Dense)          (None, 1000)              4097000   \n","=================================================================\n","Total params: 138,357,544\n","Trainable params: 138,357,544\n","Non-trainable params: 0\n","_________________________________________________________________\n"],"name":"stdout"}]},{"cell_type":"markdown","metadata":{"id":"8usULuG7en3a"},"source":["Áp dụng Fineturn learning vào VGG16"]},{"cell_type":"code","metadata":{"c
…
,"FTmodel.compile(loss=\"categorical_crossentropy\", optimizer='adam',\n","\tmetrics=[\"accuracy\"])\n","\n","FTmodel.summary()\n"],"execution_count":97,"outputs":[{"output_type":"stream","text":["Model: \"model_37\"\n","_________________________________________________________________\n","Layer (type)                 Output Shape              Param #   \n","=================================================================\n","input_53 (InputLayer)        [(None, 224, 224, 3)]     0         \n","_________________________________________________________________\n","block1_conv1 (Conv2D)        (None, 224, 224, 64)      1792      \n","_________________________________________________________________\n","block1_conv2 (Conv2D)        (None, 224, 224, 64)      36928     \n","_________________________________________________________________\n","block1_pool (MaxPooling2D)   (None, 112, 112, 64)      0         \n","_________________________________________________________________\n","block2_conv1 (Conv2D)        (None, 112, 112, 128)     73856     \n","_________________________________________________________________\n","block2_conv2 (Conv2D)        (None, 112, 112, 128)     147584    \n","_________________________________________________________________\n","block2_pool (MaxPooling2D)   (None, 56, 56, 128)       0         \n","_________________________________________________________________\n","block3_conv1 (Conv2D)        (None, 56, 56, 256)       295168    \n","_________________________________________________________________\n","block3_conv2 (Conv2D)        (None, 56, 56, 256)       590080    \n","_________________________________________________________________\n","block3_conv3 (Conv2D)        (None, 56, 56, 256)       590080    \n","_________________________________________________________________\n","block3_pool (MaxPooling2D)   (None, 28, 28, 256)       0         \n","_________________________________________________________________\n","block4_conv1 (Conv2D)        (None, 28, 28, 512)       1180160   \n","_________________________________________________________________\n","block4_conv2 (Conv2D)        (None, 28, 28, 512)       2359808   \n","_________________________________________________________________\n","block4_conv3 (Conv2D)        (None, 28, 28, 512)       2359808   \n","_________________________________________________________________\n","block4_pool (MaxPooling2D)   (None, 14, 14, 512)       0         \n","_________________________________________________________________\n","block5_conv1 (Conv2D)        (None, 14, 14, 512)       2359808   \n","_________________________________________________________________\n","block5_conv2 (Conv2D)        (None, 14, 14, 512)       2359808   \n","_________________________________________________________________\n","block5_conv3 (Conv2D)        (None, 14, 14, 512)       2359808   \n","_________________________________________________________________\n","block5_pool (MaxPooling2D)   (None, 7, 7, 512)         0         \n","_________________________________________________________________\n","flatten_40 (Flatten)         (None, 25088)             0         \n","_________________________________________________________________\n","dense_128 (Dense)            (None, 512)               12845568  \n","_________________________________________________________________\n","dropout_34 (Dropout)         (None, 512)               0         \n","_________________________________________________________________\n","dense_129 (Dense)            (None, 512)               262656    \n","_________________________________________________________________\n","dropout_35 (Dropout)         (None, 512)               0         \n","_________________________________________________________________\n","dense_130 (Dense)            (None, 2)                 1026      \n","=================================================================\n","Total params: 27,823,938\n","Trainable params: 13,109,250\n","Non-trainable params: 14,714,688\n","_________________________________________________________________\n"],"name":"stdout"}]},{"cell_type":"code","metadata":{"colab":{"base_uri":"https://localhost:8080/"},"id":"zbQ76CzigA2Q","executionInfo":{"status":"ok","
…
